packages/SystemUI/assets/backgesture.tflite (tflite, 520324 bytes, 5 tensors)

hidden_layer_1/bias f4 [3]
000000 e9 63 bb ba 9b ae 03 40 48 44 6f bb
       -0.0014296743 2.057532 -0.0036509205

hidden_layer_2/bias f4 [3]
000000 ca 7a bb ba e0 d0 fa 3b 21 b9 fa 3b
       -0.0014303562 0.0076542944 0.0076514636

hidden_layer_1/MatMul f4 [3, 43005]
000000 10 25 ca 3b 5b 1e 1d bc 60 5b 4c ba 03 5e ff ba
       0.006168969 -0.009589757 -0.00077955984 -0.0019482974
000010 ea 09 3a 3a d0 04 84 ba 69 15 08 3c af 75 ff 3b
       0.0007096814 -0.0010072235 0.008305886 0.0077960114
000020 7a 87 38 bc 7d a8 96 bb b5 00 02 3c f5 c4 9b bb
       -0.011262769 -0.004597722 0.007934739 -0.0047537037
000030 42 9b d6 3b fe d8 a9 3b f3 c4 18 3c a9 80 0c 3c
       0.00654927 0.005183338 0.0093243 0.008575597
000040 05 03 00 3c 40 e8 0d 3a 6a 90 05 bc 4b bb 33 3c
       0.00781322 0.0005413331 -0.008152107 0.010969947
000050 99 85 c7 bb 65 67 16 bc d2 29 e6 3b 4e b1 e3 3b
       -0.006088924 -0.009179925 0.0070240283 0.0069486266
000060 10 87 49 3b 98 16 0f bc ae e4 36 bc 43 b4 1c 3c
       0.003075067 -0.008733414 -0.01116292 0.009564462
000070 17 8a ff bb f1 0f 13 3c 18 70 3f bb 8a 41 d0 3b
       -0.007798444 0.008975969 -0.00292111 0.006355469
000080 d0 dc 79 3a 00 2d d6 b9 bd 88 0d 3c 22 6f 35 bc
       0.00095315 -0.00040850788 0.008638558 -0.011073859
000090 0e ac 12 bc 0b 29 92 bb 94 8d 1b 3b 6a 51 a5 3b
       -0.008952154 -0.004460459 0.002373551 0.0050451057
0000a0 6e 1c b7 bb 8e fa c7 3b 44 a9 af bb 97 95 b0 bb
       -0.005588106 0.0061028665 -0.005360754 -0.0053889262
0000b0 d8 5a 7f bb b2 03 2f bc a9 41 e5 bb b8 83 31 bc
       -0.003896406 -0.010682033 -0.0069963527 -0.010834627
0000c0 70 52 73 ba eb 03 0c bc 14 17 15 bc 20 ab 61 3a
       -0.00092819985 -0.008545856 -0.009099741 0.00086085685
0000d0 82 5d 83 bb 10 2a f0 3a 20 e7 94 3a 66 d9 01 bc
       -0.0040089497 0.0018323082 0.0011360385 -0.007925367
0000e0 00 e1 79 ba 40 9a b3 39 18 86 c0 3a 80 fe 22 ba
       -0.0009532124 0.00034256466 0.00146884 -0.0006217733
0000f0 85 a1 b1 bb 4a 5a a4 3b e4 1a 36 bb 94 3a 2b 3b
       -0.005420866 0.005015646 -0.0027787024 0.0026127445
000100 74 94 3a bb bf 63 15 3c f8 26 3b 3b ac 1f 04 bc
       -0.0028469833 0.00911802 0.0028557163 -0.008064192
000110 f2 8a d3 3b a0 48 0e ba a8 ff bc bb 6d 16 24 3c
       0.0064557726 -0.0005427692 -0.0057677813 0.010015112
000120 83 2d e8 bb 3c 38 3a bc 28 fb c4 3a d2 67 2a bc
       -0.0070855035 -0.011365946 0.0015028464 -0.010400729
000130 1f 2b 1d 3c fc e6 7a 3b 92 10 9c 3b 48 dd f5 3a
       0.0095928 0.003828465 0.0047627175 0.0018757964
000140 a0 ff d6 b9 f9 70 22 bc 6d 96 33 3c 80 32 47 bb
       -0.00041007716 -0.00991463 0.010961157 -0.003039509
000150 70 32 b5 3a 4a 14 02 bc b2 49 b6 3b 67 89 21 3c
       0.0013824236 -0.007939408 0.0055629844 0.009859419
000160 3e a7 e6 3b ba de f3 3b 29 92 01 bc 30 cb 49 3b
       0.00703898 0.0074423226 -0.007908382 0.0030791275
000170 8f 01 27 3c 8c a6 08 3b fe fb 99 3b 18 bc a4 bb
       0.010193243 0.0020851223 0.0046992293 -0.0050273053
000180 cc 33 4c bb f9 10 e2 bb 5a 44 a0 bb 7a 07 26 bc
       -0.0031158803 -0.006898996 -0.0048909606 -0.0101336185
000190 1b 3f 22 3c e3 45 33 3c f5 d1 39 3c 10 93 61 bb
       0.009902741 0.010941955 0.011341562 -0.0034419931
0001a0 e8 15 77 bb a0 69 06 bc c0 d3 b9 3a ce f5 1e bc
       -0.0037702266 -0.008203894 0.0014177486 -0.009702159
0001b0 d7 bf 34 3c b0 bd 5b bb ee 2a 9b bb 76 45 23 bc
       0.011032066 -0.003352981 -0.004735342 -0.009965291
0001c0 18 af e8 ba 77 ab b2 bb 92 e1 24 bc 90 a6 49 3a
       -0.0017752377 -0.005452569 -0.010063546 0.0007692361
0001d0 d2 59 83 bb 5e 09 39 bc 78 70 ff 3a 5e 96 8a 3b
       -0.00400851 -0.011293737 0.0019488474 0.004229351
0001e0 9a b4 97 3b df 26 d9 bb 06 bd fd 3b 8c 4d 46 bb
       0.0046296837 -0.0066269482 0.0077434806 -0.0030258624
0001f0 a3 54 03 3c 8a c4 f8 3b 96 4d 26 bc 09 51 1d bc
       0.008015784 0.0075917887 -0.010150334 -0.00960184
000200 da 76 02 bc 1c d6 2d 3b 3f 4d 3a 3c 18 0a a9 ba
       -0.007962907 0.0026525324 0.011370956 -0.0012896685
000210 38 70 36 bc 70 68 bc ba 1a 49 ff 3b b6 ff ea 3b
       -0.0111351535 -0.0014374387 0.007790697 0.0071715964
000220 8f b1 0f 3c 9c b7 4e bb 2f 71 17 3c ab 94 bf bb
       0.008770361 -0.0031542545 0.009243294 -0.00584658
000230 9f 1f d8 bb 04 ac 6d bb 20 cb 5d 3a 6a 6c ca 3b
       -0.0065955664 -0.003626586 0.0008460749 0.0061774747
000240 fb 30 3e bc 01 bc d1 bb 05 0c 19 3c 54 57 60 3b
       -0.011608358 -0.0064005856 0.009341245 0.003423174
000250 b8 be 01 3b b8 e7 1d 3b ae 6b ee 3b 25 aa 22 3c
       0.0019797515 0.0024094414 0.00727602 0.009928261
000260 f4 67 72 3b 66 14 ae bb a5 6b 04 3c a0 2b 6f ba
       0.003698823 -0.0053124903 0.008082305 -0.0009123627
000270 12 a4 9e bb 84 11 39 3b dd 34 24 3c d2 0e b0 bb
       -0.004841336 0.00282392 0.010022369 -0.0053728605
000280 cc d8 9f bb c0 59 10 bc 7e 65 16 bc b8 60 9a bb
       -0.004878139 -0.008810461 -0.009179471 -0.004711237
000290 b9 45 e7 bb d8 86 00 3b 80 93 1b bc 8c 9e de bb
       -0.007057872 0.0019611623 -0.009495616 -0.0067938026
0002a0 06 46 b3 3b 74 82 1a bb 57 c7 bf bb 1c fa f1 bb
       0.005470994 -0.0023576291 -0.0058526206 -0.0073845517
0002b0 5e 89 88 3b e8 e5 3d bc e6 70 80 bb 79 0f 2d bc
       0.004166766 -0.011590458 -0.0039197085 -0.010562771
0002c0 d8 5a 23 3b 46 4b f3 3b 54 72 77 3b be db a3 3b
       0.0024925973 0.007424745 0.0037757354 0.0050005605
0002d0 a0 36 0b 3a 8b e8 37 bc 21 0c 3c 3c f0 3f 41 3a
       0.0005310569 -0.011224876 0.011477501 0.0007371893
0002e0 ac d1 51 3b 96 1a cb bb ce c6 15 bc a5 c7 01 bc
       0.0032015843 -0.0061982377 -0.009141637 -0.007921134
0002f0 c2 43 b6 3b e6 59 f7 bb f4 24 2e 3b fd 52 3c 3c
       0.0055622766 -0.0075485585 0.0026572319 0.011494395
000300 28 7e 70 bb 0e d7 f7 3b b1 70 32 3c 12 20 f6 bb
       -0.0036696289 0.0075634783 0.010891126 -0.0075111473
000310 f2 ef db 3b 82 b4 93 3b 20 00 2f 3a 11 cd 3c 3c
       0.0067119533 0.004507602 0.0006675739 0.011523501
000320 df 2c d6 bb 18 05 29 bb b8 99 4d 3b 7c bd 1d bb
       -0.006536111 -0.002579039 0.003137214 -0.002406924
000330 06 37 e0 3b 14 a5 00 3b 60 f0 e3 b9 91 e3 37 3c
       0.006842497 0.0019629644 -0.00043475907 0.01122369
000340 f0 67 33 bc ee 71 ee 3b a4 d1 10 bb bd 8f 1b 3c
       -0.010950074 0.007276765 -0.0022097612 0.009494719
000350 88 cc b6 3a f6 26 94 3b 77 de 30 3c 56 0b 25 bc
       0.0013946453 0.004521246 0.010795227 -0.0100735035
000360 40 96 05 3a a7 c9 0c bc 8e 12 eb 3b 07 ed 17 3c
       0.00050959364 -0.008593 0.0071738428 0.00927282
000370 18 61 1a bb 8a 95 a4 3b 78 80 0a bc ce 4d a9 3b
       -0.0023556408 0.0050227093 -0.008453481 0.0051667457
000380 f2 1c 96 3b 20 d7 e0 39 85 75 0a bc 18 8d 68 3b
       0.0045810873 0.0004288489 -0.00845087 0.003548449
000390 ce 55 bd 3b 00 25 e6 b8 25 a4 ea bb ed f6 16 3c
       0.005778051 -0.000109741464 -0.007160681 0.009214145
0003a0 68 a3 07 bb 82 54 ed 3b 2d 8f 3c 3c 6a ce 3c bc
       -0.0020696763 0.00724274 0.011508745 -0.011523822
0003b0 c7 41 d8 bb d4 19 af bb a0 b6 f6 3a 5d 32 2c bc
       -0.006599638 -0.005343655 0.0018822737 -0.010510054
0003c0 fc 36 1f 3b 49 11 07 3c 7a 46 95 3b 56 d0 b2 3b
       0.0024294248 0.008243867 0.0045555206 0.0054569645
0003d0 98 0a 6c 3b 86 ab 3c bc 00 aa 6c 3b 0c 65 21 bb
       0.0036017057 -0.011515504 0.003611207 -0.002462688
0003e0 c5 93 99 bb 4c 1b cc bb f8 6b 10 3b 18 1a 30 bb
       -0.004686805 -0.00622884 0.002203701 -0.0026871022
0003f0 58 fb dc 3a 56 4a e4 3b 5b bc 30 3c 64 bd 17 3b
       0.0016859574 0.0069668693 0.010787095 0.0023153657

hidden_layer_2/MatMul f4 [3, 3]
000000 cc 92 e0 3e 6b db 00 bf b0 50 0f bf b1 cd 48 3e
       0.43861997 -0.50334805 -0.55982494 0.19609715
000010 c8 3e 58 3f 9e fd ed be 29 d4 2e bf 6b 26 5e 3f
       0.84470797 -0.46482557 -0.6829248 0.8677737
000020 07 17 7d bf
       -0.9886326

probability_output/MatMul f4 [1, 3]
000000 26 03 c4 3e 99 ea 84 be e9 3f 85 bf
       0.38283652 -0.25960234 -1.0410129
