packages/SystemUI/assets/backgesture1000.tflite (tflite, 16360 bytes, 5 tensors)

hidden_layer_1/bias f4 [3]
000000 4f 95 52 40 e7 4d c9 bf 00 00 00 00
       3.290363 -1.5726899 0.0

hidden_layer_2/bias f4 [3]
000000 f8 66 bd 3f 00 00 00 00 00 00 00 00
       1.4797049 0.0 0.0

hidden_layer_1/MatMul f4 [3, 1005]
000000 9b bf 66 bc 62 13 ad 39 40 9b 1c 3f c0 7a 3c 3c
       -0.014083768 0.00033011573 0.6117439 0.011503875
000010 69 ac d8 3f 1e 10 95 40 25 32 82 40 bf 8b 3f 40
       1.6927615 4.6582174 4.068621 2.9929044
000020 20 03 72 40 77 7b 89 40 7f ae 3e 40 5d 08 6a 40
       3.7814407 4.2963214 2.9794004 3.6567605
000030 2a 6c 4f 40 f1 ae 8e 3f f1 4e 0b 40 5d 4d 4e 40
       3.2409768 1.1147138 2.1766932 3.2234719
000040 3a 3e 12 40 7f f9 35 40 6f 63 66 40 bf 35 70 40
       2.285048 2.843353 3.599819 3.7532804
000050 c1 bc 64 40 ea 70 4e 40 3b 6c a3 40 ac 89 1e 40
       3.5740206 3.2256417 5.1069617 2.4771528
000060 b1 5e 3c 40 53 c3 95 3f cc d4 e2 3f e6 2f 2a 40
       2.9432795 1.1700233 1.772119 2.6591735
000070 d9 10 45 40 79 d1 4e 40 4f c6 43 40 37 dd 4f 40
       3.0791533 3.2315352 3.0589788 3.247877
000080 82 29 a4 40 46 bd 2a 40 c7 23 8c 40 f0 26 db bf
       5.130067 2.6678023 4.3793674 -1.7121258
000090 b1 61 78 40 17 52 62 40 3b 0c 81 40 ed 32 40 40
       3.8809626 3.5362604 4.032743 3.0031083
0000a0 01 c4 3e 40 76 7a 75 40 35 4d 71 40 35 5b 71 40
       2.9807131 3.8355994 3.7703373 3.7711918
0000b0 1f 65 77 40 c0 f6 dc 40 6c c9 ff 3f 0c 07 83 40
       3.865547 6.905121 1.9983344 4.09461
0000c0 97 7c bb 40 e8 48 8b 40 f4 7e a2 40 0e a8 a0 40
       5.8589587 4.3526497 5.077997 5.0205145
0000d0 e1 bc ad 40 e6 55 8f 40 94 83 e6 3f a6 ea 93 40
       5.4293065 4.4792356 1.8008904 4.6223936
0000e0 fe cf a2 40 7d 39 8d 40 b0 61 bc 40 7a 22 65 40
       5.0878897 4.4132676 5.8869247 3.5802293
0000f0 c1 1a a4 40 fd 91 23 40 b9 c0 3e 40 90 e0 a3 40
       5.128266 2.5557854 2.9805129 5.1211624
000100 66 a8 70 40 50 6f 9d 40 e4 d2 a6 40 e3 24 c6 40
       3.7602782 4.919838 5.2132435 6.192003
000110 9b 60 86 40 8b 69 cb 40 89 da da 40 16 62 ae 40
       4.1992927 6.3566337 6.8391767 5.4494734
000120 87 2c 76 40 29 47 8e 40 51 29 96 40 13 62 01 3f
       3.8464677 4.4461865 4.6925435 0.50540274
000130 b4 00 84 40 5b 8e a2 40 25 d0 a3 40 3c 7e b0 40
       4.125086 5.0798774 5.1191583 5.5154095
000140 20 70 99 40 b9 0d a1 40 52 2f b3 40 90 c8 99 40
       4.794937 5.032925 5.5995264 4.8057327
000150 87 79 85 40 c6 cb 91 40 b1 25 b4 40 0f 76 91 40
       4.171085 4.5561247 5.629601 4.5456614
000160 0f 1d d0 3f eb 9f ac 40 d0 f1 96 40 a9 fc a8 40
       1.6258868 5.394521 4.717018 5.2808423
000170 7a 61 ce 40 fa 47 7c 40 e3 49 74 40 0a 58 80 40
       6.449399 3.941893 3.8170097 4.010747
000180 17 5e a4 40 a8 4a 9c 40 b9 99 c9 40 b5 7e 88 40
       5.1364856 4.8841133 6.300015 4.265467
000190 63 76 37 40 49 a4 9a 40 12 49 af 40 6b d9 7c 40
       2.8666008 4.8325543 5.4776697 3.9507701
0001a0 1a a3 a3 40 49 48 aa 40 f6 9b fb 40 2f 56 9b 40
       5.11366 5.321324 7.862788 4.8542705
0001b0 74 a3 8f 40 21 5c af 40 5a cb b0 40 cc 2a 86 40
       4.488703 5.479996 5.524823 4.192724
0001c0 b4 57 bf 3f a8 bf 9e 40 0a 71 8f 40 97 25 f6 3e
       1.494864 4.9608955 4.4825487 0.48075554
0001d0 3f a2 bb 40 b7 dc a9 40 eb a3 9a 40 fe c9 9e 40
       5.8635554 5.3081927 4.8325095 4.9621572
0001e0 06 34 da 40 c1 09 e5 40 97 cc 93 40 d8 87 9d 40
       6.8188505 7.1574407 4.6187243 4.9228325
0001f0 88 f7 74 3f 7d a0 af 40 87 8e a6 40 e3 cc 9d 40
       0.956902 5.488341 5.2048984 4.9312606
000200 be e1 a4 40 6d 0e a6 40 21 05 ca 40 64 55 74 40
       5.1525564 5.189261 6.313126 3.8177118
000210 95 0a ac 40 df 89 b5 40 27 d9 c2 40 42 12 5d bd
       5.3762918 5.67308 6.089008 -0.05397249
000220 32 41 aa 40 58 71 ab 40 89 e9 92 40 45 85 a7 40
       5.3204584 5.357586 4.5910077 5.2350183
000230 c0 2d 05 3e 67 8c 7b 40 04 dd a8 40 e7 13 b9 40
       0.13005733 3.9304445 5.2769794 5.7836795
000240 0d 64 7c 40 3c ef a6 40 51 97 c9 40 41 72 7b 40
       3.9436066 5.2167034 6.2997212 3.9288485
000250 7b 1b a2 40 5a af 76 40 4a 67 bd 40 55 29 9a 40
       5.0658545 3.8544526 5.9188585 4.8175454
000260 04 0a 86 40 34 a2 a2 40 c0 9c 7f 40 a0 d6 a5 40
       4.1887226 5.0823 3.9939423 5.1824493
000270 5b 4c 81 40 63 1b a8 40 0f 35 a8 40 e3 6a b2 40
       4.0405707 5.253343 5.256477 5.5755477
000280 77 64 93 40 ee 6c a7 40 7d 32 95 40 8d f9 98 40
       4.606014 5.232047 4.662413 4.7804627
000290 53 20 5c 40 0f 57 e4 40 61 77 ac 40 37 c4 9a 40
       3.439473 7.1356273 5.3895726 4.836452
0002a0 3d 38 9e 40 b1 6c ae 40 bc 0d 8d 40 87 0b 40 40
       4.944365 5.450768 4.4079266 3.0007036
0002b0 e5 fe bf 40 d7 b5 91 40 25 0c c3 40 3a ed aa 40
       5.999865 4.5534472 6.0952325 5.3414583
0002c0 a7 8c 9e 40 85 b1 58 40 0c d0 98 40 ff 3e 42 40
       4.9546695 3.385835 4.7753963 3.035095
0002d0 73 a0 a9 40 76 d3 a3 40 fa de 3e 40 ec ef 71 40
       5.300836 5.119563 2.9823594 3.7802687
0002e0 24 d7 a4 40 f9 77 98 40 9f 65 fb 40 2b ec a9 40
       5.1512623 4.764645 7.856155 5.310079
0002f0 62 c4 ab 40 4a b7 72 40 88 f1 a7 40 ef 72 bd 40
       5.3677225 3.792437 5.248234 5.92028
000300 82 e6 a0 40 fa 17 93 40 ed b3 bd 40 3b 19 aa 40
       5.028138 4.596677 5.9282136 5.31558
000310 e9 15 9e 40 a5 28 ad 40 51 40 9d 40 91 4f 88 40
       4.9401746 5.4112115 4.914101 4.2597127
000320 15 cd 9d 40 27 80 8d 40 a1 fc 8e 40 a6 6d 6e 40
       4.9312844 4.4218936 4.4683385 3.7254424
000330 d5 c4 85 40 9b 81 98 40 36 9a b9 40 1f dc 2c 40
       4.1802773 4.765821 5.8000746 2.7009351
000340 2e 08 89 40 3b c4 a8 40 a4 b8 a1 40 04 e6 9b 40
       4.2822485 5.273954 5.053789 4.871828
000350 3d 7b ca 40 b0 00 24 40 d6 ce a0 40 e8 fe 8e 40
       6.3275437 2.562542 5.0252485 4.4686165
000360 fa ed 9c 40 2f eb 8e 40 6a 4d 8b 40 68 17 d0 40
       4.90405 4.466209 4.3532 6.502857
000370 d3 78 aa 40 36 99 92 40 8b 13 af 40 1b d3 9e 40
       5.327249 4.5812025 5.4711356 4.9632697
000380 07 26 a7 40 cb ea 4b 40 63 54 08 41 f8 31 a9 40
       5.223392 3.1862056 8.520602 5.2873497
000390 4f 7f 9d 40 ff b9 70 40 04 9f 91 40 30 4e 73 40
       4.9217906 3.7613523 4.550661 3.8016472
0003a0 6b 1d a5 40 33 e6 93 40 4c 22 a4 40 d9 81 81 40
       5.159841 4.6218505 5.1291866 4.0471005
0003b0 8c 31 8a 40 c7 6c 77 40 28 b1 9e 40 f3 bf 40 40
       4.318548 3.8660142 4.9591255 3.0117157
0003c0 36 6d 4c 40 cc f1 95 40 2d 86 a1 40 69 c8 af 40
       3.1941657 4.685766 5.047629 5.493214
0003d0 73 6e c7 40 07 5b 9c 40 14 5e 75 40 cb c6 a1 40
       6.2322326 4.8861117 3.833867 5.0555167
0003e0 6e b8 81 40 0e c7 aa 40 4d 7a 8d 40 87 d3 88 40
       4.0537634 5.3367987 4.4211793 4.275821
0003f0 44 6b 99 40 8e 68 6a 40 73 ea b2 40 8f f6 26 40
       4.794344 3.6626315 5.5911193 2.6087987

hidden_layer_2/MatMul f4 [3, 3]
000000 69 ec d2 3e 2a f9 23 bf c8 0d bc 3e 80 46 0c bf
       0.41195992 -0.6405207 0.36729264 -0.54795074
000010 c8 2e 4b bf 04 f1 08 bf d4 1a 79 bf 14 8e 22 bf
       -0.7936826 -0.5349276 -0.9730656 -0.63498044
000020 60 ab db 3e
       0.42904186

probability_output/MatMul f4 [1, 3]
000000 0f b0 46 3f 82 89 99 bf c4 f1 7d be
       0.77612394 -1.1995089 -0.24799258
